Entrenamiento jugador de football - Deep Reinforcement Learning - ECI 2019/football.pth (torch_old, 52823 bytes, 6 tensors)

fc1.weight f4 [64, 115]
0.016026536 -0.565429 -0.16083285 -0.13571697 -0.9009984 0.81297785 0.22747737 0.07691171
0.13049462 -0.34825915 0.14309129 0.04344132 -0.08000264 -0.05267498 -0.029356966 0.012537673
0.045948267 0.06503528 -0.05413518 -0.031524077 0.042953253 0.086518146 -0.010107538 0.07886451
-0.005947093 0.018950643 0.09352016 -0.07742164 -0.049621634 -0.014524323 -0.027266001 0.08965256
-0.051359907 -0.03384325 -0.05606456 -0.0782507 -0.04535103 0.089242004 0.050693125 0.054279
0.01398756 -0.038724937 0.024860023 -0.07798342 -0.058295257 -0.03899037 0.06791793 0.063757665
-0.032273058 0.005718682 0.068722256 0.101787455 0.046092503 0.021680867 0.071607046 -0.045823053
0.026460184 -0.06321363 -0.055546828 -0.039088614 0.05127637 0.046584696 -0.04615411 0.03725514
0.060274906 -0.0026864908 0.012643799 0.030690048 0.06693315 0.09862263 -0.062776975 -0.025090372
0.045731418 0.08634669 0.09023132 0.09136426 0.027641693 -0.07200494 0.017661711 -0.049254954
-0.07782111 0.09193642 0.07998798 -0.083935894 0.02653739 -0.0066256262 -0.0062620677 -0.033603035
-0.06251731 0.17242065 0.45358425 -0.30631346 0.3884561 -0.6158752 -0.080017 -0.070046306
0.04656136 -0.0013111134 -0.1069075 -0.053695448 0.08772533 0.062833846 -0.040659554 -0.023469731
-0.08883023 -0.0016760975 -0.07022311 -0.07192939 -0.014221452 0.014001101 -0.038188897 0.05533275
-0.056746565 0.0846127 0.06390454 -0.14540619 -0.042267766 0.07808902 0.07675717 -0.30714133
-0.30732748 0.14829685 -0.55670255 -0.03685273 -0.03944212 0.24825335 0.18171048 -0.01750321
-0.004701715 -0.048509497 0.0080846455 0.047853116 -0.032829363 0.023134813 0.09467416 0.018334188
0.030512065 0.019875728 0.046792407 0.0872129 0.116251804 0.08713988 0.11645391 0.02117632
-0.055848207 -0.01628758 0.09141552 0.02731594 -0.018429454 -0.043538544 -0.059347954 -0.05078351
0.009005797 0.07905942 0.07833533 -0.06201306 0.08608847 -0.045048732 0.008206309 -0.009890168
0.009958943 0.009611363 -0.05575761 -0.05259523 0.013328598 0.029126335 -0.014440969 0.06304757
-0.056010168 0.021627162 0.10992693 -0.010115786 0.11212612 0.061691213 -0.056234214 0.0869199
0.01715974 -0.013707321 0.102488704 -0.047434647 0.037926633 0.008396695 0.09451204 0.053950656
0.07272744 0.06085248 0.005496031 0.008309339 -0.04892541 0.07844752 0.10195949 0.091724955
-0.037856665 0.03207939 -0.03781521 -0.023412678 -0.026417382 0.059788067 -0.027649071 0.025885932
0.031843297 0.08803209 -0.04256962 0.039887406 -0.08505929 0.09393247 0.86448383 -0.3185889
-0.24526449 -0.077718705 -0.0059232013 -0.018433899 -0.0830703 0.025537496 -0.00065521896 0.011898115
-0.072941005 -0.048875507 0.075299084 -0.07567712 -0.0066959634 0.092246994 0.033685535 -0.0252802
-0.0808118 0.046194226 -0.066420525 -0.026470482 -0.03128706 -0.013809219 0.01462871 0.063471876
-0.0018419651 0.096575774 0.06528394 -0.054495994 0.054898813 -0.05568484 -0.025994526 0.040679727
0.01740001 0.080448836 -0.016399153 0.013768937 0.061627198 -0.07656217 0.08103793 -0.06349128
0.014904883 -0.0022344836 -0.035492856 0.025944661 0.09073021 -0.013639279 -0.04174261 -0.020868003
00000000: 154a 833c f4bf 10bf 5eb1 24be 64f9 0abe
00000010: d5a7 66bf 511f 503f d4ef 683e e383 9d3d
00000020: 62a0 053e 064f b2be 8686 123e 87ef 313d
00000030: 6dd8 a3bd b8c1 57bd 057e f0bc d06a 4d3c
00000040: 4034 3c3d 3831 853d dabc 5dbd 641f 01bd
00000050: c0ef 2f3d 6d30 b13d 169a 25bc b783 a13d
00000060: d5df c2bb 613e 9b3c 7f87 bf3d 3d8f 9ebd
00000070: 0e40 4bbd 6df7 6dbc f35c dfbc c39b b73d
00000080: c45e 52bd 389f 0abd f4a3 65bd e741 a0bd
00000090: 00c2 39bd 83c4 b63d 98a3 4f3d a853 5e3d
000000a0: 142c 653c 0a9e 1ebd 3fa7 cb3c c5b5 9fbd
000000b0: 02c7 6ebd 5eb4 1fbd 8e18 8b3d 6193 823d
000000c0: c130 04bd c863 bb3b 41be 8c3d f175 d03d
000000d0: 7ecb 3c3d 139c b13c b7a6 923d f4b0 3bbd
000000e0: 07c3 d83c 2676 81bd 1285 63bd 621b 20bd
000000f0: 2c07 523d 98cf 3e3d 180c 3dbd d898 183d
00000100: d2e2 763d d60f 30bb f027 4f3c b269 fb3c
00000110: 3f14 893d a9fa c93d 3791 80bd 538a cdbc
00000120: de50 3b3d 89d6 b03d 33cb b83d 2f1d bb3d
00000130: d570 e23c 5377 93bd 4baf 903c 90bf 49bd
00000140: ad60 9fbd 2949 bc3d bdd0 a33d 95e6 abbd
00000150: f164 d93c c81b d9bb 0832 cdbb 56a3 09bd
00000160: 1309 80bd 0a8f 303e 323c e83e 1ed5 9cbe
00000170: b8e3 c63e ffa9 1dbf f4df a3bd 7074 8fbd
00000180: 20b7 3e3d aad9 abba 52f2 dabd c2ef 5bbd
00000190: 56a9 b33d 08af 803d a28a 26bd 9843 c0bc
000001a0: a0ec b5bd 80b0 dbba 22d1 8fbd b74f 93bd
000001b0: 1801 69bc e064 653c f66b 1cbd 98a4 623d
000001c0: 166f 68bd 6c49 ad3d 62e0 823d 5ce5 14be
000001d0: f720 2dbd 23ed 9f3d dd32 9d3d a141 9dbe
000001e0: 075a 9dbe 21db 173e 0f84 0ebf e3f2 16bd
000001f0: 0f8e 21bd 2036 7e3e 5012 3a3e e462 8fbc
00000200: d810 9abb e5b1 46bd 7675 043c a101 443d
00000210: 1578 06bd 3885 bd3c 87e4 c13d 9431 963c
00000220: 70f4 f93c 6cd2 a23c 65a9 3f3d ad9c b23d
00000230: 6d15 ee3d 6576 b23d 637f ee3d f679 ad3c
00000240: 17c1 64bd 886d 85bc 0f38 bb3d aec5 df3c
00000250: 5ef9 96bc 7955 32bd d716 73bd 5f02 50bd
00000260: 0d8d 133c e8e9 a13d 466e a03d 6801 7ebd
00000270: 274f b03d 0585 38bd c173 063c 5f0a 22bc
00000280: d62a 233c fa78 1d3c 1762 64bd 196e 57bd
00000290: 3160 5a3c 5a9a ee3c d099 6cbc 161f 813d
000002a0: eb6a 65bd 722b b13c 5f21 e13d afbc 25bc
000002b0: 61a2 e53d edaf 7c3d d955 66bd 0f03 b23d
000002c0: 9592 8c3c ac94 60bc 99e5 d13d d54a 42bd
000002d0: f558 1b3d 4b92 093c 878f c13d 5dfb 5c3d
000002e0: 20f2 943d 7340 793d 0d18 b43b e523 083c
000002f0: 0366 48bd 18a9 a03d 23d0 d03d 4bda bb3d
00000300: 970f 1bbd ae65 033d 1fe4 1abd f2cb bfbc
00000310: 4469 d8bc 55e4 743d 4e80 e2bc bc0e d43c
00000320: 1e6e 023d 2b4a b43d 7b5d 2ebd fa60 233d
00000330: 9133 aebd ab5f c03d d04e 5d3f 161e a3be
00000340: 9d26 7bbe fc2a 9fbd 6a17 c2bb b002 97bc
00000350: c320 aabd 0334 d13c 00c3 2bba 50f0 423c
00000360: 1862 95bd af31 48bd 6836 9a3d 9bfc 9abd
00000370: d069 dbbb feeb bc3d d8f9 093d 6c18 cfbc
00000380: a880 a5bd 2836 3d3d 7c07 88bd a0d8 d8bc
00000390: dc26 00bd 1040 62bc 42ad 6f3c 8bfd 813d
000003a0: 186e f1ba 85c9 c53d 96b3 853d 3137 5fbd
000003b0: 94dd 603d c915 64bd 79f2 d4bc c99f 263d
000003c0: 778a 8e3c 5cc2 a43d 8457 86bc 1c97 613c
000003d0: cd6c 7c3d a1cc 9cbd 37f7 a53d b707 82bd
000003e0: 9c33 743c 6a70 12bb f560 11bd e689 d43c
000003f0: c3d0 b93d 4877 5fbc 4dfa 2abd 60f3 aabc

fc1.bias f4 [64]
-0.017824484 -0.040805284 -0.011384767 0.023768634 -0.049979936 -0.02703085 0.05054493 -0.040115263
-0.009870487 -0.11201587 -0.085078746 -0.017326549 -0.046845675 0.102261245 -0.019953132 -0.093163036
0.07951553 -0.06968723 0.064803734 -0.015780209 0.01831054 -0.09885067 0.0816704 0.00344385
-0.052180007 -0.079802215 0.016963914 -0.097189635 0.048837088 0.046471562 0.07139322 0.062989004
-0.054940075 -0.03538461 0.04618649 0.05030569 0.10163264 -0.038533457 -0.024180517 0.00697515
0.06529562 -0.04568589 0.07060103 -0.031409834 0.046319693 0.061585225 -0.093135096 0.018684726
-0.063941166 0.029460482 0.08934783 -0.04775144 -0.073309585 -0.055506747 0.06715804 -0.015107729
-0.08664105 0.08054369 0.046941843 -0.02046706 -0.0077400496 0.004001904 0.08179283 0.046690404
00000000: a704 92bc 7123 27bd 2c87 3abc 70b6 c23c
00000010: c3b7 4cbd cd6f ddbc 3308 4f3d e74f 24bd
00000020: d3b7 21bc 9468 e5bd c43d aebd 68f0 8dbc
00000030: 40e1 3fbd 586e d13d c074 a3bc 43cc bebd
00000040: 0ad9 a23d 2eb8 8ebd d2b7 843d 7f45 81bc
00000050: fcff 953c 3872 cabd d042 a73d 37b2 613b
00000060: b4ba 55bd 586f a3bd e8f7 8a3c 5c0b c7bd
00000070: 6609 483d f758 3e3d 9c36 923d 6100 813d
00000080: d808 61bd 74ef 10bd 0c2e 3d3d 570d 4e3d
00000090: c624 d03d 42d5 1dbd 3816 c6bc cd8f e43b
000000a0: b6b9 853d 2121 3bbd 4697 903d 99a7 00bd
000000b0: b8b9 3d3d ca40 7c3d 9dbd bebd b610 993c
000000c0: 96f3 82bd 1c57 f13c fffb b63d 0497 43bd
000000d0: 5623 96bd 0b5b 63bd 288a 893d 6886 77bc
000000e0: dd70 b1bd 17f4 a43d 1746 403d 89aa a7bc
000000f0: 3ea0 fdbb 6722 833b 0083 a73d 703e 3f3d

fc2.weight f4 [64, 64]
-0.038935665 -0.031258546 0.037251778 -0.092344984 0.06477051 0.052517787 0.012138714 0.0725538
-0.027107827 -0.11725408 -0.15158847 0.08265617 -0.044233512 -0.12934566 0.12231816 -0.08836354
0.10158242 0.10837457 -0.058338005 0.07278693 0.09567188 -0.1206002 -0.12083227 0.0041929954
0.036190387 -0.08532843 -0.10292947 0.07761326 -0.08674951 -0.12490404 0.014760257 -0.089261115
-0.043624952 -0.04384084 0.0800253 0.008033241 0.091649026 -0.044176802 0.0664154 -0.12485633
0.036370877 0.0051158816 -0.03942377 0.068237424 0.009574056 -0.08817977 -0.06894311 -0.010051691
-0.04181753 0.042399567 -0.14558247 -0.08399989 0.10901779 -0.0762986 -0.15555821 0.08943084
-0.06922396 -0.019948913 0.04693137 0.038736876 -0.13147818 0.010334673 0.11811804 -0.027901717
0.037869934 0.15701728 0.050479457 -0.11553669 0.11748878 0.090613715 0.037471652 -0.018283995
-0.09175642 0.043857172 0.10686299 0.30321804 -0.11005209 -0.2768266 -0.0026379228 -0.017612917
-0.01553832 0.14732628 -0.34110478 0.02035756 -0.083235115 0.048841443 -0.048625093 -0.22020632
0.07048777 -0.04970239 -0.10059981 -0.25384632 0.14758532 -0.10175 0.19648796 -0.034003075
0.006573975 0.041792795 0.15441118 -0.11522157 -0.22366504 0.0754886 0.09316932 -0.40511414
0.14934148 0.052482218 -0.13822599 -0.245128 0.09010479 0.24273466 -0.04931344 -0.3721478
0.01660055 -0.21558581 -0.05123731 0.06970455 0.11213458 -0.381293 0.16824906 -0.07345721
0.15636538 0.23963512 -0.18247461 -0.054426912 0.07272242 -0.06396298 0.00042766772 -0.4648773
-0.09362772 -0.035015807 0.038664665 -0.022246301 0.11875119 0.12032877 -0.06563116 0.06745899
-0.02394779 0.037122753 -0.2406672 0.04761117 -0.051288594 0.041257426 -0.071288675 -0.057777476
-0.05389969 0.10577973 -0.03257074 0.021402571 0.09302178 0.06498556 0.10539153 0.25078964
0.002549098 0.027246369 -0.06294455 -0.00902385 -0.07195468 -0.09844515 -0.24525738 -0.06400366
0.095660165 0.052818775 -0.06918961 0.09576469 -0.2490871 -0.06152375 0.018502194 0.35165337
-0.63063264 -0.06319687 0.087902434 -0.106527835 -0.083898485 -0.22885968 0.07225381 0.30035865
0.12391417 -0.10260841 0.032423656 0.033984307 0.0024118312 -0.108939685 -0.09301387 -0.12016593
-0.28494862 -0.3112206 0.033813193 -0.037083715 -0.16987598 0.03617622 -0.022447465 -0.1633767
-0.09133743 0.07452567 0.10061175 -0.065322205 0.107248634 -0.03766206 -0.121467635 -0.020225048
-0.09435095 0.026071057 0.0018672929 -0.055143774 -0.036043122 -0.0015417029 -0.068437055 0.051391885
-0.09256598 0.07305361 -0.08360106 -0.10433574 0.023981988 0.01317513 -0.13394548 0.072855756
-0.04509197 0.08237088 -0.032281995 0.047292676 -0.0937403 -0.086883396 -0.12273264 -0.092281066
-0.06819148 0.057026237 -0.082509816 -0.06311313 -0.08506979 -0.047194093 -0.017153984 0.028807728
-0.07875321 -0.10474123 0.043737166 -0.10338954 0.08626062 -0.01272352 -0.014777541 0.07772272
0.022502258 -0.11308257 -0.15820679 -0.11692697 -0.092245 0.008141092 0.054154843 0.064772755
-0.11502035 0.06984795 0.11081292 0.049064413 -0.06502858 -0.110233426 0.123583525 0.010594801
00000000: 017b 1fbd f608 00bd 5295 183d 5e1f bdbd
00000010: 67a6 843d e41c 573d 75e1 463c 1697 943d
00000020: 3c11 debc e822 f0bd 023a 1bbe a347 a93d
00000030: 332e 35bd 3073 04be f281 fa3d f2f7 b4bd
00000040: 720a d03d 7df3 dd3d d5f3 6ebd 5011 953d
00000050: 9eef c33d 3dfd f6bd e976 f7bd 6565 893b
00000060: 5f3c 143d acc0 aebd b0cc d2bd b3f3 9e3d
00000070: baa9 b1bd b0cd ffbd 01d5 713c 88ce b6bd
00000080: 14b0 32bd 7492 33bd 4ee4 a33d db9d 033c
00000090: 7cb2 bb3d bcf2 34bd cc04 883d adb4 ffbd
000000a0: a1f9 143d 20a3 a73b d27a 21bd 10c0 8b3d
000000b0: 80dc 1c3c 9897 b4bd 0c32 8dbd d9af 24bc
000000c0: dc48 2bbd 2bab 2d3d 9213 15be 2208 acbd
000000d0: b844 df3d 7142 9cbd a74a 1fbe 8427 b73d
000000e0: 4bc5 8dbd e76b a3bc 1c3b 403d 8faa 1e3d
000000f0: 37a2 06be c352 293c dfe7 f13d 2492 e4bc
00000100: 811d 1b3d 23c9 203e 8cc3 4e3d 809e ecbd
00000110: f59d f03d af93 b93d e07b 193d 51c8 95bc
00000120: caea bbbd 94a3 333d fcda da3d 653f 9b3e
00000130: fd62 e1bd 37bc 8dbe 00e1 2cbb f748 90bc
00000140: 7094 7ebc b3dc 163e 49a5 aebe e6c4 a63c
00000150: 2c77 aabd f70d 483d 1b2b 47bd c47d 61be
00000160: e45b 903d bc94 4bbd 4607 cebd 25f8 81be
00000170: 9b20 173e 4e62 d0bd 2434 493e cf46 0bbd
00000180: 806a d73b ec2e 2b3d f71d 1e3e 49f9 ebbd
00000190: 7308 65be c499 9a3d 8ecf be3d 1f6b cfbe
000001a0: f9ec 183e 98f7 563d 1d8b 0dbe d602 7bbe
000001b0: dc88 b83d 6f8f 783e e4fc 49bd 288a bebe
000001c0: e0fd 873c 87c2 5cbe 37de 51bd 42c1 8e3d
000001d0: d1a6 e53d d638 c3be 7b49 2c3e bc70 96bd
000001e0: 3f1e 203e e962 753e a0da 3abe c1ee 5ebd
000001f0: 7eef 943d 06ff 82bd 9738 e039 6604 eebe
00000200: e4bf bfbd bc6c 0fbd d75e 1e3d e03d b6bc
00000210: d333 f33d ee6e f63d a169 86bd f027 8a3d
00000220: 282e c4bc 070e 183d 7671 76be ee03 433d
00000230: fd13 52bd 8cfd 283d ccff 91bd 13a8 6cbd
00000240: ecc5 5cbd 0ba3 d83d e568 05bd 7254 af3c
00000250: 3482 be3d 2617 853d 84d7 d73d 8067 803e
00000260: c50e 273b c733 df3c 12e9 80bd c5d8 13bc
00000270: fa5c 93bd 9c9d c9bd c024 7bbe 5a14 83bd
00000280: 7ae9 c33d 8058 583d 48b3 8dbd 4720 c43d
00000290: b010 7fbe 5400 7cbd ea91 973c e90b b43e
000002a0: 2471 21bf 5c6d 81bd 3106 b43d 442b dabd
000002b0: f8d2 abbd 315a 6abe cef9 933d 9cc8 993e
000002c0: b6c6 fd3d 5c24 d2bd abce 043d 2133 0b3d
000002d0: d00f 1e3b c51b dfbd 0e7e bebd 8e19 f6bd
000002e0: c9e4 91be 4e58 9fbe b47f 0a3d 18e5 17bd
000002f0: f8f3 2dbe 842d 143d bfe3 b7bc 394c 27be
00000300: 1e0f bbbd eaa0 983d 880d ce3d a6c7 85bd
00000310: 2ca5 db3d 8843 1abd 06c4 f8bd 00af a5bc
00000320: 123b c1bd f892 d53c f4bf f43a 70de 61bd
00000330: f4a1 13bd f712 caba ba28 8cbd 4c80 523d
00000340: 3c93 bdbd 229d 953d 0837 abbd faad d5bd
00000350: e075 c43c 80dc 573c 0129 09be 6635 953d
00000360: 5cb2 38bd 10b2 a83d 203a 04bd f7b5 413d
00000370: eafa bfbd ecef b1bd 405b fbbd dbfd bcbd
00000380: faa7 8bbd 5894 693d e8fa a8bd 7541 81bd
00000390: 1239 aebd 984e 41bd 8386 8cbc 2ffe eb3c
000003a0: 5d49 a1bd 9282 d6bd be25 333d e5bd d3bd
000003b0: 68a9 b03d 5076 50bc 801d 72bc 172d 9f3d
000003c0: a856 b83c d697 e7bd f600 22be 6877 efbd
000003d0: f2ea bcbd 3762 053c 78d1 5d3d 94a7 843d
000003e0: ca8f ebbd 710c 8f3d e2f1 e23d c4f7 483d
000003f0: b42d 85bd 10c2 e1bd 5c19 fd3d d195 2d3c

fc2.bias f4 [64]
-0.0951787 -0.09089532 0.04804848 -0.09233923 0.01626952 -0.01004237 0.08932106 0.1042445
-0.09243301 -0.15276885 0.045144513 0.13076827 -0.1033973 -0.037506722 0.01935431 0.031641506
0.1686287 0.08846611 -0.050995134 0.064323746 0.00025334608 -0.12809476 -0.111752145 0.16135634
0.10007951 -0.059595972 -0.06541698 0.12762523 -0.011973298 -0.038691327 0.037617777 0.059305537
-0.043285422 0.0009285545 0.07787787 -0.0057212505 -0.065178335 0.03913479 0.0438575 0.15064423
-0.033655994 -0.026565393 0.054962203 -0.14439097 0.11988904 -0.02279623 0.050557286 -0.06845416
0.16002972 -0.29506394 -0.005416197 -0.043733716 0.049160957 0.10687978 -0.17245708 0.02346165
-0.068668865 -0.02504831 0.05996065 -0.06315033 0.0106168315 0.035933044 -0.06209535 -0.044285614
00000000: 0ded c2bd 5327 babd 7cce 443d 5a1c bdbd
00000010: a847 853c c188 24bc f6ed b63d 247e d53d
00000020: 854d bdbd 706f 1cbe 74e9 383d 1ee8 053e
00000030: f7c1 d3bd a6a0 19bd ee8c 9e3c 869a 013d
00000040: 00ad 2c3e b82d b53d 46e0 50bd 2bbc 833d
00000050: 89d3 8439 462b 03be 4fde e4bd 993a 253e
00000060: 7cf6 cc3d e81a 74bd 56f9 85bd 30b0 023e
00000070: a72b 44bc cc7a 1ebd 1915 1a3d 5dea 723d
00000080: 0e4c 31bd 3d6a 733a 6f7e 9f3d 5479 bbbb
00000090: 387c 85bd cd4b 203d eca3 333d 7b42 1a3e
000000a0: deda 09bd ab9f d9bc 0c20 613d 3adb 13be
000000b0: 6388 f53d 29bf babc 2815 4f3d b231 8cbd
000000c0: d5de 233e 9f12 97be 5a7a b1bb 2022 33bd
000000d0: 005d 493d c9e3 da3d 9798 30be a532 c03c
000000e0: 43a2 8cbd 1d32 cdbc 4c99 753d f654 81bd
000000f0: 38f2 2d3c 872e 133d b257 7ebd d564 35bd

fc3.weight f4 [21, 64]
-0.03914065 -0.08017004 -0.07907788 0.052813873 -0.10663412 0.12562236 0.10560848 -0.057044905
0.23341858 -0.12313728 0.12451223 0.15358274 -0.11958763 -0.17769589 -0.092414536 0.07225526
0.10214292 0.027402155 0.0049552307 0.19916843 0.108556904 -0.11379255 0.04820559 -0.003105393
0.022408636 0.16197672 0.14845443 0.14292115 -0.13547002 -0.110847324 -0.08108148 0.018705295
0.027226213 -0.010134866 0.1345132 -0.041757025 -0.032259136 0.08021592 -0.025602512 0.08550249
0.102573074 0.09882072 -0.010988767 0.09426831 0.16108325 0.14384672 0.14650682 -0.023116527
0.042945232 0.0784749 -0.17414246 0.0061243027 0.0046299705 -0.09629915 0.07736902 -0.16220716
0.012754478 0.10454177 -0.04892566 0.14904469 0.09528679 0.005386591 -0.16502318 0.039130885
-0.11907672 0.13646397 0.22940423 -0.11645867 -0.038445488 0.11526408 -0.10556858 -0.11911528
0.09860967 0.092168495 0.03500928 0.09382948 0.031418696 0.00026708958 -0.12509546 0.03660357
0.009567261 0.056214456 0.0085729305 0.11265962 0.13860665 0.11945297 -0.0015408575 0.00530336
0.093160644 0.16171332 0.119100586 0.13794294 -0.037755717 -0.022476122 -0.015186556 -0.0039459905
-0.022954717 -0.24910907 0.059144184 -0.026502818 0.11916767 0.082969144 -0.118898764 0.14310536
0.19372703 -0.012469388 -0.0012074785 -0.084301546 0.17205234 0.18789595 0.1608837 -0.30579567
0.0596534 -0.007626357 -0.13327238 0.060957868 -0.10320827 -0.31897154 -0.078538075 -0.05076861
0.031841386 0.09234813 -0.004183387 0.07550666 0.061561156 0.04579759 0.008960614 0.17608295
-0.007304485 0.1894835 0.2635649 -0.051531196 0.011848878 0.10981925 0.017331963 -0.00055031205
0.23857147 -0.020163976 -0.012269689 0.119942695 0.04891433 -0.034146383 -0.07404877 -0.0035696875
0.0021819316 0.12028157 0.08934736 0.09295951 -0.017805075 0.093992144 0.01562686 0.045450464
0.13542691 0.21348329 0.2732337 0.119844764 0.010394987 -0.104917645 -0.0005202313 0.08952077
-0.023168223 -0.050016195 0.059311263 0.09841589 -0.1158469 0.13317777 -0.117129155 0.029878577
0.07063005 -0.07836351 0.076510936 -0.09807641 -0.022383291 0.19777824 0.13226166 -0.20512412
-0.013729778 0.06782609 0.12179092 -0.06386519 -0.21163811 -0.17364913 -0.03633066 0.010231896
0.08118939 0.051283732 0.046442077 0.18497619 0.09032838 0.10387378 -0.17755009 0.118238516
0.034969196 0.1077588 0.16333838 0.06624223 -0.15812178 0.0798073 0.06358139 -0.020369172
0.15991373 0.023952132 0.07718313 0.10167435 0.058018997 -0.0057704938 0.053945888 -0.0069879224
0.069624804 0.1286743 0.07227069 0.16066997 0.030348217 -0.10625161 0.006992416 0.060693685
0.01040906 0.06588078 0.13457328 0.11919571 -0.14780067 0.057946548 -0.019773176 -0.06910171
0.06445045 0.04458013 0.108690456 0.04285456 -0.039186627 0.15047249 -0.02886116 0.02292837
0.13994712 0.02367435 0.10272667 0.07956639 0.25253832 0.03825332 0.07234022 -0.23917201
0.05570913 0.013455333 -0.08895054 -0.07122212 -0.10135166 -0.18345778 0.1451831 0.14235136
-0.026969464 0.07499693 -0.09004723 0.036425635 0.11789663 0.033980552 -0.07851087 0.10553043
00000000: f251 20bd 3130 a4bd 95f3 a1bd 5c53 583d
00000010: fd62 dabd 26a3 003e 4249 d83d eba7 69bd
00000020: 4805 6f3e 662f fcbd 4500 ff3d cb44 1d3e
00000030: 5cea f4bd e9f5 35be d543 bdbd 91fa 933d
00000040: 4f30 d13d 7c7a e03c 7d5f a23b cff2 4b3e
00000050: 1553 de3d 120c e9bd 3a73 453d d983 4bbb
00000060: 5192 b73c 3add 253e 7004 183e ec59 123e
00000070: a7b8 0abe ec03 e3bd 0c0e a6bd d93b 993c
00000080: 8209 df3c b60c 26bc d4bd 093e 6a09 2bbd
00000090: 2822 04bd 3f48 a43d 5cbc d1bc ee1b af3d
000000a0: d511 d23d 8562 ca3d 3b0a 34bc be0f c13d
000000b0: 02f3 243e 8e4c 133e e205 163e df5e bdbc
000000c0: 57e7 2f3d 73b7 a03d 6752 32be 60ae c83b
000000d0: 02b7 973b 7d38 c5bd a673 9e3d a219 26be
000000e0: 28f8 503c ff19 d63d 4666 48bd 2c9f 183e
000000f0: b825 c33d 0082 b03b d6fb 28be b547 203d
00000100: 7fde f3bd 36bd 0b3e f1e8 6a3e e281 eebd
00000110: 0479 1dbd 930f ec3d 5734 d8bd b6f2 f3bd
00000120: def3 c93d d6c2 bc3d e465 0f3d ac29 c03d
00000130: e4b0 003d 2808 8c39 0619 00be a0ed 153d
00000140: 00c0 1c3c 2141 663d 7a75 0c3c 16ba e63d
00000150: e7ee 0d3e c2a3 f43d 99f6 c9ba cfc7 ad3b
00000160: 02cb be3d 2d98 253e 02eb f33d ea40 0d3e
00000170: bda5 1abd d81f b8bc 08d1 78bc 5e4d 81bb
00000180: 880b bcbc 7316 7fbe 2c41 723d 701c d9bc
00000190: 2e0e f43d baeb a93d 3281 f3bd 368a 123e
000001a0: 6160 463e 674c 4cbc 4144 9eba 4aa6 acbd
000001b0: 7d2e 303e cc67 403e b2be 243e 4091 9cbe
000001c0: 2057 743d 85e6 f9bb 8e78 08be f5ae 793d
000001d0: dc5e d3bd 3d50 a3be 92d8 a0bd bff2 4fbd
000001e0: 1d6c 023d 0421 bd3d cb14 89bb 3ca3 9a3d
000001f0: 8d27 7c3d 4196 3b3d 8acf 123c 174f 343e
00000200: 765a efbb f607 423e fbf1 863e 6012 53bd
00000210: cc21 423c eae8 e03d c3fb 8d3c d142 10ba
00000220: 144c 743e ec2e a5bc ce06 49bc 84a4 f53d
00000230: 645a 483d 14dd 0bbd e2a6 97bd 6bf1 69bb
00000240: bdfe 0e3b 2f56 f63d c0fb b63d 8e61 be3d
00000250: f3db 91bc f47e c03d e703 803c 442a 3a3d
00000260: 5aad 0a3e 5d9b 5a3e 4ae5 8b3e 2c71 f53d
00000270: bc4f 2a3c 10df d6bd 2260 08ba aa56 b73d
00000280: 49cb bdbc c8dd 4cbd 5ef0 723d 458e c93d
00000290: 2441 edbd c15f 083e 69e1 efbd ebc3 f43c
000002a0: 7da6 903d 0c7d a0bd c4b1 9c3d 49dc c8bd
000002b0: 2a5d b7bc 6186 4a3e 9a6f 073e 0f0c 52be
000002c0: ddf2 60bc 68e8 8a3d 856d f93d c1cb 82bd
000002d0: a9b7 58be 14d1 31be 75cf 14bd afa3 273c
000002e0: 9f46 a63d e40e 523d 0c3a 3e3d 666a 3d3e
000002f0: 16fe b83d c7bb d43d b1cf 35be 0927 f23d
00000300: dc3b 0f3d a5b0 dc3d 2d42 273e 02aa 873d
00000310: adea 21be 0272 a33d f636 823d 40dd a6bc
00000320: 6dc0 233e 4337 c43c 3012 9e3d a43a d03d
00000330: 54a5 6d3d 6916 bdbb 5df6 5c3d f1fa e4bb
00000340: 7397 8e3d 32c3 033e a802 943d ab86 243e
00000350: d39c f83c 729a d9bd a320 e53b f199 783d
00000360: c38a 2a3c 81ec 863d 94cd 093e e11c f43d
00000370: 0f59 17be 5c59 6d3d 5bfb a1bc 3385 8dbd
00000380: 99fe 833d a899 363d 1a99 de3d 4388 2f3d
00000390: 2882 20bd 7615 1a3e 3d6e ecbc 47d4 bb3c
000003a0: 4c4e 0f3e b6f0 c13c 5c62 d23d b4f3 a23d
000003b0: b44c 813e 83af 1c3d 1c27 943d 82e9 74be
000003c0: 422f 643d c273 5c3c b32b b6bd e7dc 91bd
000003d0: 7691 cfbd 5bdc 3bbe e1aa 143e 8ec4 113e
000003e0: 11ef dcbc fe97 993d af6a b8bd 0c33 153d
000003f0: ca73 f13d 312f 0b3d 4fca a0bd 5720 d83d

fc3.bias f4 [21]
0.12347383 0.13587508 0.107488014 0.103592254 0.07459168 0.08177509 0.11315115 0.12269007
0.05147302 0.055826183 0.084230915 0.10357304 0.13346688 0.121162295 0.1348295 0.10609418
0.115036845 0.13298497 0.10251466 0.07121953 0.109239444
00000000: d9df fc3d d622 0b3e ad22 dc3d 2d28 d43d
00000010: 86c3 983d b379 a73d cabb e73d ee44 fb3d
00000020: 60d5 523d ffa9 643d 4281 ac3d 1a1e d43d
00000030: 8bab 083e f023 f83d bf10 0a3e e847 d93d
00000040: 7098 eb3d 362d 083e 35f3 d13d 8cdb 913d
00000050: eeb8 df3d
